…
35, self_tok=False, share_embeddings=True, share_vocab=True, start_decay_after=30, start_epoch=1, teacher_forcing_ratio=0.6, testdata='dataset/test_truth.json', tie_decoder_embeddings=True, traindata='dataset/train_data.json', valsplit=0, vocab_size=None)
INFO:main:Loading test data for character model from "dataset/test_truth.json"
INFO:main:Loading training data for character model from "dataset/train_data.json"
INFO:main: * Character model vocabulary size. source = 41; target = 41
INFO:main: * Character model maximum batch size. 500
INFO:main:Seq2Seq(
  (encoder): EncoderRNN(
    (embedding): Embedding(41, 256, padding_idx=0)
    (rnn): LSTM(256, 250, num_layers=3, dropout=0.5, bidirectional=True)
  )
  (decoder): LuongAttnDecoderRNN(
    (tanh): Tanh()
    (embedding): Embedding(41, 256, padding_idx=0)
    (rnn): LSTM(256, 500, num_layers=3, dropout=0.5)
    (W_a): Linear(in_features=500, out_features=500, bias=True)
    (W_c): Linear(in_features=1000, out_features=500, bias=True)
    (W_proj): Linear(in_features=500, out_features=256, bias=True)
    (W_s): Linear(in_features=256, out_features=41, bias=True)
  )
)
INFO:main:=======Char eval on test set=============
INFO:main:*** Character model ***
INFO:model:Loading model from checkpoint at spelling_model/model_50_spelling.pt
INFO:model:* number of parameters: 10437793
INFO:main:Namespace(attention=True, backward_splits=None, batch_size=500, bias=True, bos=True, brnn=True, char_model=None, correct_unique_m
…
, rnn_type='LSTM', save_dir='word_model', save_interval=51, seed=3435, self_tok=False, share_embeddings=True, share_vocab=True, start_decay_after=15, start_epoch=1, teacher_forcing_ratio=0.6, testdata='dataset/test_truth.json', tie_decoder_embeddings=True, traindata='dataset/train_data.json', valsplit=0, vocab_size=None)
INFO:main:Loading test data from "dataset/test_truth.json"
INFO:main:Loading training data from "dataset/train_data.json"
INFO:main: * Vocabulary size. source = 10084; target = 10084
INFO:main: * Maximum batch size. 32
INFO:main:Seq2Seq(
  (encoder): EncoderRNN(
    (embedding): Embedding(10084, 100, padding_idx=0)
    (rnn): LSTM(100, 100, num_layers=3, dropout=0.5, bidirectional=True)
  )
  (decoder): LuongAttnDecoderRNN(
    (tanh): Tanh()
    (embedding): Embedding(10084, 100, padding_idx=0)
    (rnn): LSTM(100, 200, num_layers=3, dropout=0.5)
    (W_a): Linear(in_features=200, out_features=200, bias=True)
    (W_c): Linear(in_features=400, out_features=200, bias=True)
    (W_proj): Linear(in_features=200, out_features=100, bias=True)
    (W_s): Linear(in_features=100, out_features=10084, bias=True)
  )
)
INFO:main:=======Eval on test set=============
INFO:model:secondary model confidence:50.7621498108, unk_word:diid, prediction:did
INFO:model:secondary model confidence:70.4585800171, unk_word:lailahaillallah, prediction:lailahaillalah
INFO:model:secondary model confidence:63.5755653381, unk_word:speakin, prediction:speaking
INFO:model:secondary model confidence:62.9138870239, unk_word:thisnewssoccer, prediction:thisnewssocer
…
